course03-code/simple_cnn_model.npz (npz, 42574 bytes, 6 tensors)

k1 f8 [5, 5, 1, 6]
-0.09195976677604585 0.4350683821523981 0.241173324269386 -0.1704091261268384 -0.15256219312343294 0.4468780164522261 0.13128007536756814 0.5134236817286217
-0.09615308245519065 -0.2470365030637082 -0.2461506192923344 0.03300122026175886 0.22961145914474826 0.4597324213147146 0.5776697945586543 0.2932702018088568
-0.06326845501902284 0.06533887793861744 -0.43248525433479423 0.007395406920280123 -0.32597430173751446 -0.18202745487048913 -0.22797315815580407 -0.08510357134345442
-0.17961819719405955 0.2757871423507208 0.0273546802029523 -0.059977422279787765 0.004266676382053295 0.5058449912564745 0.44455906660072875 0.40406230263960213
-0.4003583302662136 0.16709950576921379 0.21061485466217977 -0.5761256640416134 0.6944691821715983 0.6485202719495253 -0.18256331291745262 -0.022290073218770825
0.0908933491105262 0.2998360907303715 0.6331171664075569 0.657887256634257 0.18976070789074873 -0.13725782868760067 -0.45531029939330686 0.45827567246086054
0.016868983522853525 0.4619075687865431 -0.08081276844544706 -0.008617633232503912 0.6447750272336145 0.18108034174953203 0.18090787719400248 0.35904632564316963
-0.2023506407226106 0.22244229569489135 -0.04471147705562158 0.12986402484873666 0.29856892405016705 -0.25543696800105614 0.3496872829372258 0.4089682228769965
-0.27329093643857355 0.49383414562091016 -0.15849601279142436 0.2729350598713426 -0.22688455420265247 -0.08655022306706116 -0.08390235216141163 0.4488409540790066
0.5187450538010808 0.021654409291237128 -0.10995053595862093 -0.18156732848075016 -0.3712473503767775 0.6809177115638172 0.19813445520452394 0.5113581896841143
0.0905588873575729 -0.08707834107007345 -0.10532568735951446 0.0903318015672457 0.6529829858420346 -0.16125436719809685 0.561143706075886 0.35488430464620646
0.32167177961771753 -0.3581225924677735 -0.043368197655818834 -0.26771831475744456 -0.05651261020374375 -0.3201165907770384 -0.14300508687245173 0.3168961254882425
0.22876857614931395 -0.40398766653802526 0.06977656494036967 -0.10522730281394954 -0.023390953733026142 0.8096193688950576 0.43001686292353064 -0.09633293967845322
-0.13402268682863505 -0.2413660837710918 0.5430065904770307 0.40026872988039275 0.17057802109086395 -0.4122234386786303 0.3322649660061333 -0.12920355475271383
0.001853075904780034 -0.021083087727653407 0.14034661841356608 0.3137803744698427 -0.3277863144183863 0.10881050062276985 0.38453832467025933 -0.15148442897367306
0.051964637103728 -0.7899159244980297 0.12417511782908493 0.1454734322055034 -0.23154568489045385 0.6409122328818019 -0.05981630312670148 -0.645258075022672
0.10682418842591758 -0.3351000594904517 -0.2770894709772056 0.24156620232697137 -0.004802061716452336 -0.6463009688631219 -0.33355355481548793 0.30422994305874773
-0.40752962521440045 -0.029366146050057072 0.41246741948953153 -0.3287685413401587 -0.17381776555266307 0.5078108090460757 0.08877270491989853 -0.03428687702096951
0.17056435474618037 0.07378130869664415 -0.19807020927503582 0.5937153679183097 0.2553281666446946 -0.4355302700672927
00000000: ddd4 d9de ac8a b7bf 4390 370e 29d8 db3f
00000010: 75ca 337a c4de ce3f 8acd d35b f7cf c5bf
00000020: 721c 096f 2887 c3bf 9fac 7d40 a699 dc3f
00000030: b4f9 2817 c9cd c03f e285 4080 f76d e03f
00000040: 93fc 8d08 7d9d b8bf 95d5 c962 e49e cfbf
00000050: b017 e00d dd81 cfbf 9c33 8133 89e5 a03f
00000060: e121 e885 e863 cd3f 3249 9d88 416c dd3f
00000070: d586 705d 457c e23f 5743 6a61 f0c4 d23f
00000080: a4d6 2c89 5c32 b0bf bd58 e777 0cba b03f
00000090: 16b1 d7a1 d6ad dbbf c0ba cf6d a54a 7e3f
000000a0: cf23 5351 c3dc d4bf 7549 d2f6 ac4c c7bf
000000b0: d38f 5275 392e cdbf 7c64 b1ff 58c9 b5bf
000000c0: f783 5ba5 bafd c6bf e16e 431d 7fa6 d13f
000000d0: c4f5 7483 dd02 9c3f e250 6156 5cb5 aebf
000000e0: b765 6038 ef79 713f c557 c9d5 e12f e03f
000000f0: c62f 0cdf a773 dc3f 038c d821 28dc d93f
00000100: e62b cb8b 789f d9bf ca6f 3a40 8463 c53f
00000110: a0b5 6974 6df5 ca3f 8b3d ae16 9f6f e2bf
00000120: 5e38 306f 1739 e63f 9e1e da95 adc0 e43f
00000130: 1706 3711 3c5e c7bf 5711 007e 35d3 96bf
00000140: e386 da59 c944 b73f 5d3c f6b6 8330 d33f
00000150: 7336 88ee 7e42 e43f 9b60 7693 690d e53f
00000160: 0c71 3a31 144a c83f cea6 aa1e aa91 c1bf
00000170: 3747 5bcf cd23 ddbf 3c65 717c 6354 dd3f
00000180: 8b8e 3052 1a46 913f fda2 6dc3 e48f dd3f
00000190: d989 9245 25b0 b4bf 1c60 3827 1fa6 81bf
000001a0: 47de e73c ffa1 e43f 94a1 e100 a42d c73f
000001b0: 088a 1144 fd27 c73f 72ba 9870 9dfa d63f
000001c0: 9237 1d34 a0e6 c9bf 33dc a038 fd78 cc3f
000001d0: 3b64 6b37 6ce4 a6bf 1a7d d365 629f c03f
000001e0: 996e 19d5 c01b d33f 7740 f04b 1459 d0bf
000001f0: 0db8 02c5 4661 d63f 3e09 970d 892c da3f
00000200: 3700 9344 997d d1bf 19c1 4588 fa9a df3f
00000210: 0127 beeb 9849 c4bf ea11 059d c477 d13f
00000220: 964b 2296 8d0a cdbf 1fd7 88c9 2728 b6bf
00000230: 993a 97e2 9f7a b5bf 40fc b768 cfb9 dc3f
00000240: 6732 213a 8f99 e03f ef57 e1ce 922c 963f
00000250: f9b4 1ee4 b725 bcbf 9767 ec24 993d c7bf
00000260: 0c13 263f 84c2 d7bf 54e1 cdf0 13ca e53f
00000270: f237 a846 785c c93f 6985 a7d9 0b5d e03f
00000280: c11b 9003 de2e b73f 7cfd 1523 c44a b6bf
00000290: 2b49 a3ce 9ff6 babf 1524 8525 fc1f b73f
000002a0: aa26 2193 3ce5 e43f f1fb b9ac fba3 c4bf
000002b0: 2778 3ea5 e3f4 e13f 146d 94a8 6cb6 d63f
000002c0: 1445 603b 4596 d43f 93e6 a605 7beb d6bf
000002d0: 7785 3c3d 5b34 a6bf f219 9bff 4b22 d1bf
000002e0: 4efa 4589 38ef acbf 5fd7 124c ca7c d4bf
000002f0: 58b0 a39d fd4d c2bf 0bdf ccaf 0648 d43f
00000300: 0af7 74e8 4948 cd3f bb29 f115 efda d9bf
00000310: 2134 7280 e0dc b13f 9871 3b30 2df0 babf
00000320: 43ee 3855 ccf3 97bf 0b99 f3e0 66e8 e93f
00000330: 890b bf72 6585 db3f a64d 7289 46a9 b8bf
00000340: ccee 6cc8 a727 c1bf 2889 1476 15e5 cebf
00000350: de8f 735b 4f60 e13f daa7 1cbc 009e d93f
00000360: 5c36 0027 80d5 c53f 803d f16a de61 dabf
00000370: d295 a646 d443 d53f 0c4d 18f9 bd89 c0bf
00000380: 6c42 1d1a 5d5c 5e3f d7e7 2711 ce96 95bf
00000390: eb60 18c4 e0f6 c13f f95f 9e47 fa14 d43f
000003a0: c336 2073 73fa d4bf f7dc a245 01db bb3f
000003b0: fb1c 21a2 469c d83f d3c7 257e d763 c3bf
000003c0: 0f6b d1e1 1b9b aa3f 67e0 c9c2 fd46 e9bf
000003d0: a588 0dc6 f0c9 bf3f a237 e198 df9e c23f
000003e0: b234 11fc 49a3 cdbf 77ad fa5e 5a82 e43f
000003f0: adc3 6413 3ea0 aebf 2a79 3643 f4a5 e4bf
00000400: e107 b67b d458 bb3f 958b 1985 4772 d5bf
00000410: 3c6f fa79 d5bb d1bf f118 682d a4eb ce3f
00000420: dd98 68a0 53ab 73bf b57c 945e 7fae e4bf
00000430: 7f69 5902 f158 d5bf 4eae f9dd 8078 d33f
00000440: 6f9b 1c23 f714 dabf 2606 94b3 2812 9ebf
00000450: 11e0 57bf dd65 da3f 619d 4035 8b0a d5bf
00000460: 0d99 4119 a93f c6bf f10f 2d74 fc3f e03f
00000470: 608e 68d8 ceb9 b63f 0a5d f9ae 0c8e a1bf
00000480: 98c4 bf82 0dd5 c53f a27d e8f3 54e3 b23f
00000490: bcf6 9257 5d5a c9bf 99ef 0a5f b7ff e23f
000004a0: 7a24 5ff3 4b57 d03f 3cda 965a badf dbbf

b1 f8 [6]
0.0014182976495748423 -0.09011250252894387 0.211484948339535 0.2731492624616305 -0.04214379461688252 -0.19339580908502413
00000000: d7b6 5681 c53c 573f 6891 52eb 9c11 b7bf
00000010: 7376 5b54 f011 cb3f 14c0 4c0b 477b d13f
00000020: 5bbb 3717 df93 a5bf d210 9aa1 31c1 c8bf

k2 f8 [5, 5, 6, 16]
-0.05851408987853782 0.18919726992884497 -0.09484124227039621 0.1268444131729194 -0.11405242838650331 -0.10812131088131313 -0.006659151766455774 -0.1373418542030756
0.26784843015362086 0.31941112577564124 -0.4129022437417567 -0.03928122559440673 -0.02104376296976452 -0.3214018411284168 -0.1965182530268913 -0.04848734393962263
0.18623922413848756 -0.06013624191639516 0.29109521354851386 0.5181325706418036 0.05534092281509856 -0.4441490642679295 -0.06927551127360765 0.23166839151516372
-0.10249143954474652 0.025912008819501425 -0.15180837896420388 -0.010092089777335535 0.01779474473052761 -0.2929975903653549 0.02551663177510565 0.17627106377432977
-0.17762376773342456 -0.378449977066688 -0.25877994038238306 -0.18729341939590616 -0.23394478361183513 -0.1425281065162672 -0.11855772973979031 0.1808426255838437
-0.06925446160736191 0.0672929009517058 -0.25771112148386366 -0.15697762204322127 -0.2528951173606232 -0.4331183117379448 -0.2752457122035966 -0.03487989576721113
-0.3871611287662257 0.027673115481945357 0.17729228914779127 -0.24281851489921072 -0.16827157217644656 -0.08595802157102403 -0.2955348886361185 0.15860233978676716
0.03483691468452535 0.3204205434388542 0.16952537471692872 -0.06832704333051363 -0.09698170690166924 -0.2970474643527038 0.11034702030164824 -0.1080612683527118
0.30111637695331717 -0.06741186712084761 -0.1139761053177484 -0.05862992793600864 0.06295758063864942 0.2991660950661802 -0.01034134165962452 -0.11121505441320927
-0.24721733901680526 -0.0774974232197831 0.29857508966828467 -0.16965550186527442 0.040672056637328625 0.10731043530850856 0.12174553969600674 0.26633264302672455
-0.17552814340381892 -0.10289003080945261 -0.12391697156705311 -0.14778352093259517 -0.15205707810864105 0.09246809778037365 0.14671434600133626 0.013416682448131349
-0.20396535046261602 0.04804068846781262 0.16372876903201752 -0.03293265698493955 -0.19391921119591704 -0.3736526076390938 -0.2807361475671211 -0.05826292384120388
0.16149689333658496 0.10215379145734829 0.3731600024421333 0.4410652227208235 -0.2402594584773481 -0.04131922021165401 0.016947797042810735 -0.13078464231608525
0.02990469382514772 0.16583853171444593 0.09938556055187227 0.015558182339637657 0.04399605588865312 -0.0901821962652241 -0.008541228745408044 -0.03215786491289819
-0.20199831804346982 -0.049443282429025334 -0.1586250070009105 0.43506534320009554 0.04368711105830398 -0.4343226809805109 0.21348907045919333 -0.11023180011525009
-0.39809650176706496 0.1591843344109926 0.06430042157028015 -0.06108910700031365 -0.13016030424422373 -0.05103216242392927 -0.07801624697333293 -0.22404381590715533
-0.11410206956817075 0.4497461460927017 -0.35745591558368495 0.02747532623715274 -0.09483720112999577 -0.0938943000978195 -0.06762884234051066 0.05700181051446496
-0.3149815189931927 -0.10641993907217377 -0.0702227549233867 0.15883086947337322 0.17822543080019104 0.07895950254816107 -0.01072059339193567 -0.38531298120004714
0.1175596344669172 0.12446893570438386 0.07806415899687409 -0.20319862086322188 -0.3777442682325322 0.15186174824602636 0.005024369927095968 -0.3315725043442305
0.12574426617338083 -0.01948284298094718 0.06498595383809773 0.08177021132946344 -0.01767094872298379 0.31153981099553 0.2644068692127181 0.1589768336547637
0.36237223589834566 0.03789235896718968 -0.20912258681481993 0.12997667306890726 -0.09364096933400524 0.08396494803119972 -0.1330908643660709 -0.23473835007960567
-0.3828430164469981 0.1853255728837512 0.2528655889750248 -0.1253338571239785 -0.1119066475992677 -0.0885191960817957 -0.08187314673344906 0.02902399957257783
0.024915940330609475 -0.18070457692058975 -0.01769696973349431 -0.21493628717591212 -0.29699542268908175 -0.28078930885670483 -0.24771155602329128 0.1433950925682644
0.47548673725733615 0.32649663140944435 0.016806829680387703 0.03025151480468544 -0.07315329479326028 0.061112620739580695 -0.08800435530253022 0.1051657336678957
0.029492577880663992 -0.14826625118483047 -0.06654333594016966 0.2615381127006305 -0.06043664093440496 -0.009446097739371204 0.044836705437231596 -0.204507206237895
0.12882665643426128 0.21969087681017047 0.17728475611273523 0.13817013592518002 -0.1882373525146044 0.32673028219670724 -0.3530000872028195 -0.2703603522571324
-0.23819694055699503 -0.14710851600299724 0.21620889499350612 0.3178906403818157 0.018648202202374356 -0.00246883482103201 -0.005138884266044085 0.1608206085925617
-0.20826360673751468 0.1203300333828206 0.047253044771975075 -0.10606599300800824 -0.30572525437200954 0.18901059094003256 -0.13294758366830933 0.003772842139348625
0.16913691578991183 0.1699368331344672 0.0722693950691671 0.0012300919450226326 0.06259677504990871 0.12011736787515587 0.02981510626896177 0.03800112028052566
-0.09239419625652324 0.05921509587278628 -0.04879106611731503 -0.10856846756722478 0.11691705921512377 -0.15072964853687715 -0.010489129048491445 0.029362840235362033
0.05157495928051726 -0.17460107530614055 0.029513067417243653 -0.22003690752041502 0.018554667690932867 0.2272105838061104 0.07237971890926215 0.056657747920682476
0.01927750645297162 0.16850611048814415 -0.05871738803448186 0.10491114733098267 0.5978536979877199 0.16491130938989904 -0.06157458996588797 -0.22663909841133686
00000000: 545d c40c 8ff5 adbf ab1e 6bbb 9d37 c83f
00000010: 7505 dd01 8447 b8bf 2806 210f 703c c03f
00000020: c80c f339 8a32 bdbf 3663 3c96 d6ad bbbf
00000030: ce7d e570 a046 7bbf 824c 16fa 6a94 c1bf
00000040: 0ddd f2bd 6d24 d13f c2d5 cb5c 3b71 d43f
00000050: 2537 5488 fd6c dabf 51af 8c36 ab1c a4bf
00000060: 22ac f506 7f8c 95bf c553 2107 d991 d4bf
00000070: 84a5 e896 8227 c9bf b22d fb48 55d3 a8bf
00000080: b71f 74d8 afd6 c73f 68a7 ab70 2dca aebf
00000090: d8a1 8dd1 4da1 d23f 40c4 bcc1 8a94 e03f
000000a0: 281c 3e3b a555 ac3f c71a 6532 f06c dcbf
000000b0: 8075 5537 0abc b1bf ec8a 8952 4fa7 cd3f
000000c0: 22f3 f604 e13c babf e84d d079 ad88 9a3f
000000d0: dd7b 74fb 746e c3bf f4ea 555c 29ab 84bf
000000e0: 4f15 a21a c938 923f a643 1bf7 78c0 d2bf
000000f0: fea0 e92b 0821 9a3f 0429 12db 0c90 c63f
00000100: 5324 b428 60bc c6bf 9318 ab40 8638 d8bf
00000110: 0e67 33bd d98f d0bf e8dc 8713 3bf9 c7bf
00000120: 6060 5715 e7f1 cdbf 1bc4 1f6a 5c3e c2bf
00000130: ba9f eba3 cc59 bebf 257d 4de5 d925 c73f
00000140: 37a9 b40f a9ba b1bf df2d d788 1b3a b13f
00000150: e4ac a5c9 567e d0bf ef92 70bc d717 c4bf
00000160: 0272 9800 6f2f d0bf 2aa5 0dde 35b8 dbbf
00000170: d2d5 1131 a09d d1bf b953 3717 c7db a1bf
00000180: 2b56 9578 3fc7 d8bf 74bf e457 5756 9c3f
00000190: b882 dc83 83b1 c63f b57d 2d56 ad14 cfbf
000001a0: 6213 ac41 ec89 c5bf 0ef6 794b 5801 b6bf
000001b0: 7139 612a 0bea d2bf eb03 3adb 144d c43f
000001c0: c4f3 86e2 24d6 a13f ce54 c22a c581 d43f
000001d0: 5f2c 20ea 01b3 c53f 4f74 8990 e17d b1bf
000001e0: 04f3 730b cbd3 b8bf 2e4b 305e d302 d3bf
000001f0: b918 68cb b33f bc3f 8107 8a3d e7a9 bbbf
00000200: 047d d39f 7d45 d33f 6b76 a574 e741 b1bf
00000210: 827c ddbc 892d bdbf f19e 1aee bd04 aebf
00000220: 18d7 e0ed fc1d b03f be66 988c 8925 d33f
00000230: fd7d cc61 d72d 85bf 6b10 87fd 9678 bcbf
00000240: ce68 0a59 d1a4 cfbf 4dd4 4002 dfd6 b3bf
00000250: 9da2 61b1 da1b d33f 6385 0c80 45b7 c5bf
00000260: 1d9d 3cc2 f7d2 a43f ce68 2b5a b278 bb3f
00000270: be9f 6d37 b72a bf3f b00c ea11 980b d13f
00000280: 4f37 b9c9 b477 c6bf 5a39 6945 0057 babf
00000290: 4cc3 4ccc 05b9 bfbf 7c88 a506 92ea c2bf
000002a0: 120c cd38 9b76 c3bf 56d9 e33f fdab b73f
000002b0: a002 f722 89c7 c23f 4f30 afa2 347a 8b3f
000002c0: d186 e05e 891b cabf e072 b103 ca98 a83f
000002d0: c113 3476 10f5 c43f c4ff 7099 8cdc a0bf
000002e0: c487 133f 58d2 c8bf 7400 78a0 ece9 d7bf
000002f0: adc5 26bf 94f7 d1bf 2c43 ef50 a3d4 adbf
00000300: 46a3 a421 eeab c43f 52c2 7839 c026 ba3f
00000310: f482 aa7d dae1 d73f 064a bfa0 693a dc3f
00000320: 3081 5b6a d2c0 cebf 8fb3 02f7 ca27 a5bf
00000330: 4e08 2768 c35a 913f c987 c818 8dbd c0bf
00000340: 0353 e707 569f 9e3f 87aa 106f 323a c53f
00000350: bdd1 4304 5571 b93f 31ed abe2 f7dc 8f3f
00000360: b7b6 63aa a686 a63f c3fd a32f 2e16 b7bf
00000370: eb90 0851 107e 81bf e15c 38e4 fe76 a0bf
00000380: adfe ebb4 14db c9bf 9640 1442 a150 a9bf
00000390: 77c6 b200 d34d c4bf 1db7 2a4f 1cd8 db3f
000003a0: e917 8132 285e a63f bf3a ae5b f1cb dbbf
000003b0: 857c d61f 9c53 cb3f b565 79b8 2638 bcbf
000003c0: 8f75 efbf 697a d9bf b655 2afb 2660 c43f
000003d0: f86b c30f fe75 b03f 1d98 6a49 1247 afbf
000003e0: 63b1 fbc4 17a9 c0bf d053 4f39 e320 aabf
000003f0: ac9f 4e6d dff8 b3bf 869c 18bf 77ad ccbf
00000400: 8382 3311 cb35 bdbf a017 3e0f a4c8 dc3f
00000410: fc64 ccc6 8ee0 d6bf f9c0 8aee 7d22 9c3f
00000420: 5c29 4c35 4047 b8bf 1771 33f4 7409 b8bf
00000430: dd6b 1eb2 1f50 b1bf 80e0 f15f 572f ad3f
00000440: fee3 ba3e a828 d4bf 8b11 f54d 563e bbbf
00000450: 60ba d453 1efa b1bf 7cdf fde6 9154 c43f
00000460: 3419 4d46 17d0 c63f 9f1c 27a1 b036 b43f
00000470: 0bbc 18b0 adf4 85bf 2d9f 3ec7 f7a8 d8bf
00000480: c078 5d61 6318 be3f 96df 3738 32dd bf3f
00000490: 159e e141 03fc b33f 6694 9993 6902 cabf
000004a0: f3d9 934b f62c d8bf e372 1dad 3470 c33f
000004b0: ed70 5108 6f94 743f 8b52 9ae1 7b38 d5bf
000004c0: 73e5 6f5b 6318 c03f e7bd be75 4ff3 93bf
000004d0: 531a 6f62 eba2 b03f 2472 727f e4ee b43f
000004e0: 3c04 6b4b 5518 92bf 3f2e e8ac 44f0 d33f
000004f0: d3ce 06ca 0aec d03f 3936 af56 5a59 c43f
00000500: cc5a 8a51 1b31 d73f 1093 1095 a066 a33f
00000510: cabe 9c67 87c4 cabf 9c73 095c 13a3 c03f
00000520: 61f4 dac4 daf8 b7bf 62e9 cd11 ba7e b53f
00000530: 71a0 ec16 1f09 c1bf 69bd 5a00 e80b cebf
00000540: 0514 c9fe 7f80 d8bf 6df7 5295 bfb8 c73f
00000550: db9d bb26 f32e d03f 44ea b698 f00a c0bf
00000560: 77d3 a4ff e9a5 bcbf 7051 3dac 31a9 b6bf
00000570: b209 a477 a3f5 b4bf bd75 daa3 77b8 9d3f
00000580: 96e9 7973 9083 993f f943 0edc 5321 c7bf
00000590: fb81 f988 271f 92bf 5e75 1242 0883 cbbf
000005a0: 2eb9 e016 f901 d3bf 8cc8 a6b8 73f8 d1bf
000005b0: 230c fb23 03b5 cfbf 4b69 7e38 c55a c23f
000005c0: a0ed 8cec 5f6e de3f 3f18 8a20 52e5 d43f
000005d0: 5d8c 4e3f cf35 913f 995b f6ca 40fa 9e3f
000005e0: b150 bba0 2cba b2bf 4211 e646 274a af3f
000005f0: fd0f ee13 7487 b6bf fe71 c33a 24ec ba3f
00000600: 6c84 e365 4d33 9e3f 373d f875 63fa c2bf
00000610: 9d38 a1eb fb08 b1bf b93b 2d5a 0abd d03f
00000620: d533 9628 8df1 aebf b860 ecc6 7958 83bf
00000630: 9dce 062f d6f4 a63f 6946 4bc9 4a2d cabf
00000640: b07c 1e52 647d c03f 2a8b 90a5 d41e cc3f
00000650: 3db1 ca52 44b1 c63f 1c90 8a1b 8faf c13f
00000660: e9c9 775c 2918 c8bf 0f74 2921 26e9 d43f
00000670: 4a5c 81ad 8d97 d6bf 4615 c581 954d d1bf
00000680: d88a d9c2 3c7d cebf 6815 99ac 73d4 c2bf
00000690: e7fa 8caa bbac cb3f c63d 09fc 5158 d43f
000006a0: b483 5aaa 8318 933f 210e 199a 8539 64bf
000006b0: 3ff8 c4bd 820c 75bf 6ac4 360b c595 c43f
000006c0: 953b f1c1 61a8 cabf e315 1bf6 f2cd be3f
000006d0: 8a36 dd13 8d31 a83f b9e9 2f13 2427 bbbf
000006e0: 31b3 45a8 0091 d3bf 7fb0 57c1 7f31 c83f
000006f0: ae03 f829 6d04 c1bf 5844 3f33 39e8 6e3f
00000700: cf96 ee48 47a6 c53f 6563 597a 7dc0 c53f
00000710: 02e3 5240 3f80 b23f 824d 322b 6127 543f
00000720: 3aa7 ac9d 5706 b03f cc94 b406 03c0 be3f
00000730: fe66 68e9 d987 9e3f 98e7 a101 e274 a33f
00000740: a910 4363 25a7 b7bf 90ff 67e8 7051 ae3f
00000750: a626 9f82 24fb a8bf 35fc 93a1 24cb bbbf
00000760: 5a67 acc1 46ee bd3f 6e71 80ef 1b4b c3bf
00000770: 8f79 d011 537b 85bf f73c 1dda 4a11 9e3f
00000780: 4101 ce76 0868 aa3f b4a5 24fa 5359 c6bf
00000790: b662 726d ac38 9e3f cb48 db5c 2b2a ccbf
000007a0: 29cd aeab feff 923f bd4b 6085 3c15 cd3f
000007b0: 64e4 9b2d 7a87 b23f a3c8 c48c 3e02 ad3f
000007c0: d446 0e8f 7bbd 933f cd82 dcb4 9b91 c53f
000007d0: aa18 a19a 3410 aebf 8cbc c5fa 74db ba3f
000007e0: 21cc 1414 9e21 e33f cffa 4854 d01b c53f
000007f0: 0511 5664 b486 afbf 8ff7 d58d 8202 cdbf

b2 f8 [16]
0.10550980794438239 -0.04252417971585711 -0.15218785057124223 0.12481602764129342 0.1377761679648036 0.19060304560096708 0.10528443892879842 0.09922473012912932
-0.13032966055233802 0.011943184450863537 0.01963782004227789 0.038767707200980606 -0.28934269971327625 -0.13273310488013973 0.314868061598737 0.25808283242083924
00000000: d242 87d6 b002 bb3f 4371 56b2 bac5 a5bf
00000010: 9aa8 8638 e47a c3bf a969 bc74 f1f3 bf3f
00000020: 43dc c943 a6a2 c13f 28e4 af3b ae65 c83f
00000030: 0516 fac5 ebf3 ba3f cde9 dbba ca66 b93f
00000040: 86b2 e26e a4ae c0bf 102f 0315 ab75 883f
00000050: e4a0 62cb ef1b 943f 1863 2365 5cd9 a33f
00000060: 31b6 263e 9784 d2bf 3243 47fc 65fd c0bf
00000070: 79c6 c75e cc26 d43f f704 3adb 6d84 d03f

w3 f8 [256, 10]
-0.10586789506924536 -0.11750266593443061 -0.1309670914662234 -0.19044772609436153 0.028775300340902064 0.07223114081099564 0.20811046965781857 -0.13384552902444835
-0.017376542927028386 0.1247484653496011 0.10878415214674608 -0.014648122292583585 0.13121249186065168 -0.0704145522970016 0.10153518416222342 0.14707590256973604
0.04232867325134344 0.055914706903823636 0.001731040116478923 -0.08195476321094308 0.13922354519446872 -0.1281132988400039 -0.002880169069195662 0.05015004768768719
-0.006144014234402033 0.04230360232595667 0.05899655106637433 -0.08364838608384567 0.02273321037715511 0.25355158701135017 -0.09590617899634431 0.10236422897091396
-0.014239384663907981 -0.17460679710032723 -0.022193798250951836 -0.014918925572042916 0.02896334037675671 -0.11478107373870845 -0.024839543939838917 -0.1301894374606207
-0.03675179796468203 0.03423029139249875 -0.04635036438934032 0.06282717145218798 0.09046852653665281 0.05451696682011978 0.021741344556427265 0.032250071123792835
-0.0067595851831911665 0.08344940955135595 0.01154618119516566 -0.0018225385314060416 -0.07738347109202173 -0.07997157034053032 0.011648216907472503 -0.0684765934344877
0.05780871173218428 -0.07521361149762934 0.09043340329711858 -0.07573686280560457 -0.1678757867273946 -0.03666486129950158 0.16538759027136762 0.049891885972087324
-0.059475012718138286 -0.0031612636298737284 -0.16344849974474898 0.1657807569632833 0.02672430736996715 -0.12672132129154917 0.13654853553859392 0.04183128246415947
-0.07632349406335369 -0.017792904685462223 0.0351988135561293 -0.033420713078457905 0.024056265988355773 -0.12128285310982984 0.05190290422072163 0.1489597337850958
-0.050625075691252804 -0.13195801475404104 -0.0018982751376653611 -0.17372081064707923 -0.019870835269384615 0.03929481095656262 -0.06308902875478109 -0.025826395674289314
-0.028702819462050434 0.08895757765628697 -0.06022836180871294 0.013892395461853562 0.15323601132839684 0.14694092086907287 -0.06661214125284204 -0.11069518038757065
-0.07599317145790661 0.022629475342837303 -0.11882827794841969 -0.07512442060735323 0.053800571238325136 0.04646384801910918 0.01378354720413536 -0.1570333674060999
-0.09545740450139939 0.23386644925324945 0.10138533921525993 -0.12378027236409213 0.08942956340907132 -0.10052112597778204 -0.01634914702144994 0.040815223003690226
-0.03319701967119979 0.07459033639944805 0.10317696540492892 -0.08848565502705286 0.11716196498188029 0.0787820958769788 0.05038159092814287 0.06337203120841259
-0.1438689505309054 -0.0686438613803902 0.1108912485562054 0.12764510072786564 -0.029926214696077324 -0.0915766863474843 -0.13402265009410078 -0.025341765970151565
-0.11109357859736424 -0.06334034474111327 0.02110681776096362 0.09191304264822668 0.06729781767857385 0.06228726666464313 0.21172692437486987 -0.21952198740702739
-0.10294288321778176 0.05858336759701725 -0.19638754410846604 0.023299065342218157 -0.0340363054681109 -0.032194962016354696 -0.004917440841088753 -0.07688040783364498
0.14518655329467328 0.07025312861236835 -0.011806754118107284 -0.06277521698284569 0.1843671363187157 0.06401733844508967 0.06461751806983396 0.020282945462672435
-0.02301352107033709 -0.060421636216036155 0.004392829801888021 0.024248746563965383 -0.17091287456949222 -0.026565589072629275 0.056978402050363544 -0.07143069289879615
0.0749765491754965 0.15821700234529323 -0.18275710572280507 -0.12217319471565036 -0.03388054536318478 -0.028697372294654622 0.27721628185805086 -0.1326871704080426
-0.11253556196391497 -0.1957831548455481 0.02240232273386853 0.2376065203739718 0.10536033056112144 0.07245073087614798 -0.04290159859076226 -0.11190450735848186
-0.039622853009799716 -0.05145258487339793 -0.06529616256328402 -0.032468617876444075 -0.09767835986044753 -0.13323978704972927 -0.016973640454336456 0.03646124911128237
-0.03704408360077658 -0.07791525390396904 0.09176567637174889 -0.12419864926268828 -0.10271504730399243 0.2613523710662104 -0.050922588822491566 0.12591997620745884
0.009037757800855655 0.07766558366970867 0.05113237910685917 -0.02153538353891427 -0.14221370714976816 -0.04922277929942812 -0.0018577192449615364 -0.07325618105791114
-0.0811844578336224 0.17191023246308165 0.05159567832754784 0.0034753661303839776 0.23392614092252817 -0.06919856173280989 -0.0728727075253626 0.17324766094088714
-0.11944944815546038 -0.04127095429487729 0.21847539178075778 0.026862525000079053 0.054696024621713524 -0.13598869416823367 0.16344457622944553 0.05421938907364934
-0.05954452501363784 0.18344508886953528 -0.07764876349100193 0.04820959786429561 -0.017638750311506114 -0.003184013992447872 0.08016085980526408 -0.07129843523197826
-0.13606347415102954 -0.06226634901325767 -0.04106031762461038 0.025198967845496186 0.018183895719047417 -0.03422170628275736 -0.029306823665885325 -0.002943803916274439
-0.17662399539715626 -0.06192789930119339 -0.009223491900041835 -0.14758783597072778 0.04209690853069609 -0.0756651424530422 -0.13058998010060455 0.06539656524382309
-0.04802249253190207 0.05218437704379675 -0.06872995951732581 -0.07001664299742673 0.0956199605890552 -0.23137558672158848 0.016912781380141455 -0.014658937288713472
0.06085286716132658 0.015983797536294034 -0.08797561170314692 -0.02810289164251495 0.0543214530705552 0.05222888339834691 0.012220665882602054 -0.15421136148304443
00000000: 03ce 048b 281a bbbf d995 619b a714 bebf
00000010: cb8e 5997 87c3 c0bf e71f 9651 9760 c8bf
00000020: 2946 96b7 4577 9d3f 1d37 8973 bd7d b23f
00000030: 1559 9126 5da3 ca3f 041b f0ac d921 c1bf
00000040: 1e44 5b0e 28cb 91bf 0c19 e7f2 83ef bf3f
00000050: d019 cb37 47d9 bb3f 723e 8eb1 d5ff 8dbf
00000060: 0920 af28 92cb c03f cb31 4727 b006 b2bf
00000070: 01be 5eb7 35fe b93f 9589 c817 62d3 c23f
00000080: ba5d 9896 1aac a53f d4e1 083b daa0 ac3f
00000090: 6ec7 0d2c 825c 5c3f 880f bec3 fcfa b4bf
000000a0: 06c2 b8be 13d2 c13f b4a9 593e 0466 c0bf
000000b0: 3953 b1fe 2698 67bf 1444 6c5d 44ad a93f
000000c0: 0524 3f43 772a 79bf 0367 fc58 d1a8 a53f
000000d0: 7c51 d0c2 cb34 ae3f 6ce2 970a fb69 b5bf
000000e0: b670 69ec 5f47 973f 6a02 846f 303a d03f
000000f0: 050c 46ae 4e8d b8bf 44d8 b5c7 8a34 ba3f
00000100: 92bc 92db 8929 8dbf 6c44 9af9 8359 c6bf
00000110: aabe a596 f8b9 96bf 5216 634b d08d 8ebf
00000120: 97e9 cdde 90a8 9d3f 0d53 e8dd 4a62 bdbf
00000130: e705 7a93 896f 99bf cfc8 1628 0caa c0bf
00000140: 38af a7b4 21d1 a2bf 1c6d 20fc a186 a13f
00000150: f977 6b26 3cbb a7bf 01f5 af06 7115 b03f
00000160: b7cf ca02 f228 b73f a499 23db a5e9 ab3f
00000170: d91a 5def 5c43 963f 2d6d 8ad1 1483 a03f
00000180: ddc6 bd54 f0af 7bbf e9c1 e4c4 f05c b53f
00000190: 26f2 0335 86a5 873f 7b72 d6d8 47dc 5dbf
000001a0: 8a58 9735 67cf b3bf 5ceb 384f 0479 b4bf
000001b0: f0fb 6435 05db 873f 7cb5 5799 ae87 b1bf
000001c0: 3193 a07c 1a99 ad3f 8cab 9801 3341 b3bf
000001d0: d089 a0bd a426 b73f b209 dab4 7d63 b3bf
000001e0: 3968 e42a f47c c5bf 4831 6398 bcc5 a2bf
000001f0: 5c9c b0a9 6b2b c53f f8f7 2be5 6d8b a93f
00000200: e36f 1b45 8273 aebf 735e f07c a6e5 69bf
00000210: 71f2 7d64 e1eb c4bf 8b51 bbc8 4d38 c53f
00000220: aa27 a6e8 9d5d 9b3f 2e99 537d 6738 c0bf
00000230: f43b 3a23 6c7a c13f 5240 44ec e86a a53f
00000240: 5f26 ebbe ef89 b3bf 9b4d e69e 4d38 92bf
00000250: 6fc4 2932 9405 a23f e9a8 5c0b 851c a1bf
00000260: 2647 bcae 34a2 983f 441b ac9f 640c bfbf
00000270: 0f0e 6478 0493 aa3f ae90 83d0 1c11 c33f
00000280: 2925 e7a8 87eb a9bf 0d27 e80e 00e4 c0bf
00000290: 9731 a568 f119 5fbf 7491 2ec8 7b3c c6bf
000002a0: 443d 812e 0559 94bf 3000 ec0f 731e a43f
000002b0: eaf9 3c43 9a26 b0bf 16b3 2d13 3c72 9abf
000002c0: 3deb 919b 4564 9dbf bfdf c37e ecc5 b63f
000002d0: e028 8578 40d6 aebf a3c3 5fc1 9d73 8c3f
000002e0: 29cb 9cd4 3c9d c33f 51d4 c9c8 f5ce c23f
000002f0: a48e 3248 7e0d b1bf 50e5 96f3 8456 bcbf
00000300: 278b 21da 4974 b3bf faad 1762 2e2c 973f
00000310: cae2 a0af 876b bebf 47b8 a3a1 5a3b b3bf
00000320: 1d0f f39b bf8b ab3f 6f74 6007 1cca a73f
00000330: d391 b763 8c3a 8c3f eee9 b15c ab19 c4bf
00000340: 109b 7e7e e56f b8bf 1a51 96f7 55ef cd3f
00000350: 3f31 39bc 63f4 b93f 7d99 b15d 10b0 bfbf
00000360: 7c34 231a dbe4 b63f 1eb5 a1a4 c0bb b9bf
00000370: da36 19af d4bd 90bf e0a7 f59f bbe5 a43f
00000380: 4dfc 9f23 33ff a0bf a3ea 6e2f 5a18 b33f
00000390: 875c 1d3c ce69 ba3f d89e 81f2 fea6 b6bf
000003a0: 73a9 ee97 53fe bd3f 474d 4d3d 102b b43f
000003b0: a0b1 b6aa 9dcb a93f e66e 8541 2639 b03f
000003c0: 8f54 b83a 4c6a c2bf d52e b3e3 a492 b1bf
000003d0: 7b25 f66d 5e63 bc3f a976 8fb6 ac56 c03f
000003e0: d3a1 a645 faa4 9ebf 3141 f0d8 9171 b7bf
000003f0: b5e8 8979 a727 c1bf 3a3d 4220 31f3 99bf
00000400: 880c dff6 a070 bcbf c831 2ea5 1237 b0bf
00000410: 2e1d 0690 069d 953f 23ff 3ff8 9c87 b73f
00000420: 8c8a 0506 6e3a b13f b151 90da 1de4 af3f
00000430: a9b5 ef2b de19 cb3f fa42 55e6 4b19 ccbf
00000440: e7bc c6fc 765a babf 7664 d69f a3fe ad3f
00000450: b4d0 a41f 3a23 c9bf a253 b0ce b5db 973f
00000460: 9472 b9e5 346d a1bf c993 e9a9 db7b a0bf
00000470: c4d7 7a79 4f24 74bf f540 5935 6fae b3bf
00000480: 4a1b 1c15 7995 c23f 1af1 d4e9 1bfc b13f
00000490: 8435 79b6 232e 88bf decc f05f 0912 b0bf
000004a0: 6c18 79a2 5799 c73f cca5 ffb6 7063 b03f
000004b0: e8ce db0e c68a b03f eb04 b76d 0dc5 943f
000004c0: 4b9d 7341 db90 97bf 0391 09af 95ef aebf
000004d0: e744 6045 37fe 713f 064b d8d5 a9d4 983f
000004e0: 8ce3 5e1b 79e0 c5bf bb4c 1081 0234 9bbf
000004f0: f2f0 c4ea 452c ad3f ab52 ee29 4849 b2bf
00000500: 3bfa acc2 a931 b33f 9c41 5f69 7440 c43f
00000510: ba74 18b8 9564 c7bf 2066 c013 be46 bfbf
00000520: 856d 9c74 ca58 a1bf bd5b f20d d862 9dbf
00000530: 61f0 1f5c e9bd d13f 512b c0a8 e4fb c0bf
00000540: 8da1 456e 21cf bcbf b4ac 9523 6c0f c9bf
00000550: fa50 fc6d a2f0 963f dd49 29f5 e369 ce3f
00000560: ad46 0e06 e5f8 ba3f c231 af8f 218c b23f
00000570: 7071 c9c5 32f7 a5bf 1d32 6117 c6a5 bcbf
00000580: 3ede b353 7249 a4bf 78dd a642 fe57 aabf
00000590: 947b c3d2 3fb7 b0bf 92ee d907 ba9f a0bf
000005a0: 8ba6 20f1 7201 b9bf a8c9 f357 000e c1bf
000005b0: 9ced 94ba 8961 91bf 442f 0281 0cab a23f
000005c0: 5db8 262f 71f7 a2bf 8988 600b 41f2 b3bf
000005d0: 9d77 e992 f47d b73f 1e66 ca90 7bcb bfbf
000005e0: 334d fa88 884b babf 1388 9d4b ffb9 d03f
000005f0: 4092 3d8b 8612 aabf 6bb0 dc51 251e c03f
00000600: 2983 7851 6382 823f c1da e245 e4e1 b33f
00000610: 3daf 0ff0 052e aa3f c19b 0620 5f0d 96bf
00000620: 8626 a00a 0f34 c2bf 9558 9e66 ba33 a9bf
00000630: 199f bed9 d66f 5ebf 23a3 dfc5 eac0 b2bf
00000640: 19c2 562f 81c8 b4bf af6a 238d 2701 c63f
00000650: 0e42 10ae bf6a aa3f a65a e4fb 5e78 6c3f
00000660: 208b 78b2 4af1 cd3f 8e99 9237 ffb6 b1bf
00000670: e2a7 9727 c9a7 b2bf ebbf ecb6 fa2c c63f
00000680: ec5a 5a31 3d94 bebf 4442 f16d 7721 a5bf
00000690: 1fee 566b 00f7 cb3f aa0a 7489 d981 9b3f
000006a0: 9064 f109 1e01 ac3f 0c06 0ad9 1368 c1bf
000006b0: 1c99 ce7a c0eb c43f e4c6 c2cd a4c2 ab3f
000006c0: 92c9 2db7 9e7c aebf 553a a7f0 207b c73f
000006d0: 01c9 c413 cae0 b3bf 6565 5cac edae a83f
000006e0: 0ac1 eb7e e40f 92bf 5d55 f67e 5c15 6abf
000006f0: de68 480f 6c85 b43f 4ccb 933f 9d40 b2bf
00000700: fe53 d425 876a c1bf 9078 4ef9 5fe1 afbf
00000710: b1de b8a2 db05 a5bf 6f4e 281b c2cd 993f
00000720: 7a6f b595 cc9e 923f 1374 98ea 8185 a1bf
00000730: 7f49 c7a4 9b02 9ebf bec2 7ab1 9a1d 68bf
00000740: c9b6 f575 9d9b c6bf 85ce 6a7c 03b5 afbf
00000750: 9959 8620 c4e3 82bf 5c0e 6480 28e4 c2bf
00000760: 98d8 cdda b98d a53f 8672 4870 ca5e b3bf
00000770: 59d3 db26 2cb7 c0bf 0032 fe4c d4bd b03f
00000780: 9339 cb75 6796 a8bf 90cd 8721 e9b7 aa3f
00000790: 9ddf 6160 4998 b1bf 0183 d957 9cec b1bf
000007a0: 2826 93bb 8c7a b83f bef0 0719 b79d cdbf
000007b0: eefe a58b 9551 913f bb3c fe41 8105 8ebf
000007c0: 16c6 a664 1b28 af3f d1b0 bc7e 0e5e 903f
000007d0: ff50 1cd7 9185 b6bf f04b 1c22 01c7 9cbf
000007e0: 0987 d180 05d0 ab3f 877a 3484 bebd aa3f
000007f0: f9b0 6802 2607 893f 3ee3 1ea9 32bd c3bf

b3 f8 [10]
-0.0040256516267911865 -0.013271603208534289 -0.18111562440481324 -0.09563006677519496 0.046879876730487866 0.10055394927095096 0.022101431511396326 -0.049674981521913256
-0.022421418177246157 -0.1638463715123721
00000000: 3884 50a1 337d 70bf 0d1a f86d 242e 8bbf
00000010: 5d80 cef9 cb2e c7bf 7b52 5049 367b b8bf
00000020: fec0 cba2 a300 a83f 6835 9a53 e7bd b93f
00000030: c219 25f6 c1a1 963f 9acd 21ca ff6e a9bf
00000040: f770 34e7 a3f5 96bf 3761 9bfb eaf8 c4bf
